Random seed = 1984
Training data shape:(6148,2153)
Test data shape:(2045,2153)
('Shape of Prob_transition_tensor:', (2153, 9, 2153))
graph_mat shape:(2153,5)
_________________________________________________________________
Layer (type)                 Output Shape              Param #   
=================================================================
graph_conv_1 (GraphConv)     (None, 2153, 10)          60        
_________________________________________________________________
dropout_1 (Dropout)          (None, 2153, 10)          0         
_________________________________________________________________
flatten_1 (Flatten)          (None, 21530)             0         
_________________________________________________________________
dense_1 (Dense)              (None, 100)               2153100   
_________________________________________________________________
dropout_2 (Dropout)          (None, 100)               0         
_________________________________________________________________
dense_2 (Dense)              (None, 1)                 101       
_________________________________________________________________
dropout_3 (Dropout)          (None, 1)                 0         
=================================================================
Total params: 2,153,261
Trainable params: 2,153,261
Non-trainable params: 0
_________________________________________________________________
Epoch: 0, R squared: 0.10424
Epoch: 1, R squared: 0.12123
Epoch: 2, R squared: 0.14260
Epoch: 3, R squared: 0.15752
Epoch: 4, R squared: 0.17439
Epoch: 5, R squared: 0.16708
Epoch: 6, R squared: 0.19278
…
Epoch: 28, R squared: 0.24662
Epoch: 29, R squared: 0.23953
Epoch: 30, R squared: 0.23408
Epoch: 31, R squared: 0.22845
Epoch: 32, R squared: 0.22919
Epoch: 33, R squared: 0.23797
Epoch: 34, R squared: 0.24058
Epoch: 35, R squared: 0.23974
Epoch: 36, R squared: 0.23567
Epoch: 37, R squared: 0.24007
Epoch: 38, R squared: 0.24170
Epoch: 39, R squared: 0.23603
1-Conv R squared = 0.23603
_________________________________________________________________
Layer (type)                 Output Shape              Param #   
=================================================================
diffusion_conv_1 (DiffusionC (None, 2153, 10)          100       
_________________________________________________________________
dropout_7 (Dropout)          (None, 2153, 10)          0         
_________________________________________________________________
flatten_3 (Flatten)          (None, 21530)             0         
_________________________________________________________________
dense_5 (Dense)              (None, 100)               2153100   
_________________________________________________________________
dropout_8 (Dropout)          (None, 100)               0         
_________________________________________________________________
dense_6 (Dense)              (None, 1)                 101       
_________________________________________________________________
dropout_9 (Dropout)          (None, 1)                 0         
=================================================================
Total params: 2,153,301
Trainable params: 2,153,301
Non-trainable params: 0
_________________________________________________________________
Epoch: 0, R squared: 0.14606
Epoch: 1, R squared: 0.19480
Epoch: 2, R squared: 0.22081
Epoch: 3, R squared: 0.23258
Epoch: 4, R squared: 0.24157
Epoch: 5, R squared: 0.24163
Epoch: 6, R squared: 0.24378
…
Epoch: 28, R squared: 0.23609
Epoch: 29, R squared: 0.21978
Epoch: 30, R squared: 0.24213
Epoch: 31, R squared: 0.21853
Epoch: 32, R squared: 0.23956
Epoch: 33, R squared: 0.22648
Epoch: 34, R squared: 0.22778
Epoch: 35, R squared: 0.22463
Epoch: 36, R squared: 0.21587
Epoch: 37, R squared: 0.22738
Epoch: 38, R squared: 0.22887
Epoch: 39, R squared: 0.22734
1-Conv R squared = 0.22734
_________________________________________________________________
Layer (type)                 Output Shape              Param #   
=================================================================
diffusion_conv_modified_1 (D (None, 2153, 10)          19477     
_________________________________________________________________
dropout_10 (Dropout)         (None, 2153, 10)          0         
_________________________________________________________________
flatten_4 (Flatten)          (None, 21530)             0         
_________________________________________________________________
dense_7 (Dense)              (None, 100)               2153100   
_________________________________________________________________
dropout_11 (Dropout)         (None, 100)               0         
_________________________________________________________________
dense_8 (Dense)              (None, 1)                 101       
_________________________________________________________________
dropout_12 (Dropout)         (None, 1)                 0         
=================================================================
Total params: 2,172,678
Trainable params: 2,172,678
Non-trainable params: 0
_________________________________________________________________
Epoch: 0, R squared: 0.12552
Epoch: 1, R squared: 0.13948
Epoch: 2, R squared: 0.14498
Epoch: 3, R squared: 0.15036
Epoch: 4, R squared: 0.15726
Epoch: 5, R squared: 0.16878
Epoch: 6, R squared: 0.18236
…
