Random seed = 1984
Training data shape:(6148,2153)
Test data shape:(2045,2153)
('Shape of Prob_transition_tensor:', (2153, 11, 2153))
graph_mat shape:(2153,5)
_________________________________________________________________
Layer (type)                 Output Shape              Param #   
=================================================================
graph_conv_1 (GraphConv)     (None, 2153, 10)          60        
_________________________________________________________________
dropout_1 (Dropout)          (None, 2153, 10)          0         
_________________________________________________________________
flatten_1 (Flatten)          (None, 21530)             0         
_________________________________________________________________
dense_1 (Dense)              (None, 100)               2153100   
_________________________________________________________________
dropout_2 (Dropout)          (None, 100)               0         
_________________________________________________________________
dense_2 (Dense)              (None, 1)                 101       
_________________________________________________________________
dropout_3 (Dropout)          (None, 1)                 0         
=================================================================
Total params: 2,153,261
Trainable params: 2,153,261
Non-trainable params: 0
_________________________________________________________________
Epoch: 0, R squared: 0.10142
Epoch: 1, R squared: 0.10606
Epoch: 2, R squared: 0.15163
Epoch: 3, R squared: 0.16937
Epoch: 4, R squared: 0.19016
Epoch: 5, R squared: 0.18749
Epoch: 6, R squared: 0.21066
…
Epoch: 28, R squared: 0.24668
Epoch: 29, R squared: 0.23946
Epoch: 30, R squared: 0.23370
Epoch: 31, R squared: 0.22809
Epoch: 32, R squared: 0.22960
Epoch: 33, R squared: 0.23811
Epoch: 34, R squared: 0.24079
Epoch: 35, R squared: 0.23952
Epoch: 36, R squared: 0.23354
Epoch: 37, R squared: 0.24088
Epoch: 38, R squared: 0.24143
Epoch: 39, R squared: 0.23765
1-Conv R squared = 0.23765
_________________________________________________________________
Layer (type)                 Output Shape              Param #   
=================================================================
diffusion_conv_1 (DiffusionC (None, 2153, 10)          120       
_________________________________________________________________
dropout_7 (Dropout)          (None, 2153, 10)          0         
_________________________________________________________________
flatten_3 (Flatten)          (None, 21530)             0         
_________________________________________________________________
dense_5 (Dense)              (None, 100)               2153100   
_________________________________________________________________
dropout_8 (Dropout)          (None, 100)               0         
_________________________________________________________________
dense_6 (Dense)              (None, 1)                 101       
_________________________________________________________________
dropout_9 (Dropout)          (None, 1)                 0         
=================================================================
Total params: 2,153,321
Trainable params: 2,153,321
Non-trainable params: 0
_________________________________________________________________
Epoch: 0, R squared: 0.14921
Epoch: 1, R squared: 0.20231
Epoch: 2, R squared: 0.21682
Epoch: 3, R squared: 0.22750
Epoch: 4, R squared: 0.23547
Epoch: 5, R squared: 0.23713
Epoch: 6, R squared: 0.23850
…
Epoch: 28, R squared: 0.23899
Epoch: 29, R squared: 0.21770
Epoch: 30, R squared: 0.23917
Epoch: 31, R squared: 0.21726
Epoch: 32, R squared: 0.23936
Epoch: 33, R squared: 0.22737
Epoch: 34, R squared: 0.22735
Epoch: 35, R squared: 0.22526
Epoch: 36, R squared: 0.21364
Epoch: 37, R squared: 0.22054
Epoch: 38, R squared: 0.22236
Epoch: 39, R squared: 0.22387
1-Conv R squared = 0.22387
_________________________________________________________________
Layer (type)                 Output Shape              Param #   
=================================================================
diffusion_conv_modified_1 (D (None, 2153, 10)          23803     
_________________________________________________________________
dropout_10 (Dropout)         (None, 2153, 10)          0         
_________________________________________________________________
flatten_4 (Flatten)          (None, 21530)             0         
_________________________________________________________________
dense_7 (Dense)              (None, 100)               2153100   
_________________________________________________________________
dropout_11 (Dropout)         (None, 100)               0         
_________________________________________________________________
dense_8 (Dense)              (None, 1)                 101       
_________________________________________________________________
dropout_12 (Dropout)         (None, 1)                 0         
=================================================================
Total params: 2,177,004
Trainable params: 2,177,004
Non-trainable params: 0
_________________________________________________________________
Epoch: 0, R squared: 0.13071
Epoch: 1, R squared: 0.14288
Epoch: 2, R squared: 0.14793
Epoch: 3, R squared: 0.15576
Epoch: 4, R squared: 0.16763
Epoch: 5, R squared: 0.18526
Epoch: 6, R squared: 0.20061
…
