Random seed = 1984
Training data shape:(6148,2153)
Test data shape:(2045,2153)
('Shape of Prob_transition_tensor:', (2153, 20, 2153))
graph_mat shape:(2153,5)
_________________________________________________________________
Layer (type)                 Output Shape              Param #   
=================================================================
graph_conv_1 (GraphConv)     (None, 2153, 10)          60        
_________________________________________________________________
dropout_1 (Dropout)          (None, 2153, 10)          0         
_________________________________________________________________
flatten_1 (Flatten)          (None, 21530)             0         
_________________________________________________________________
dense_1 (Dense)              (None, 100)               2153100   
_________________________________________________________________
dropout_2 (Dropout)          (None, 100)               0         
_________________________________________________________________
dense_2 (Dense)              (None, 1)                 101       
_________________________________________________________________
dropout_3 (Dropout)          (None, 1)                 0         
=================================================================
Total params: 2,153,261
Trainable params: 2,153,261
Non-trainable params: 0
_________________________________________________________________
Epoch: 0, R squared: 0.06416
Epoch: 1, R squared: 0.09495
Epoch: 2, R squared: 0.14671
Epoch: 3, R squared: 0.15825
Epoch: 4, R squared: 0.20572
Epoch: 5, R squared: 0.19513
Epoch: 6, R squared: 0.22495
…
Epoch: 28, R squared: 0.24099
Epoch: 29, R squared: 0.23262
Epoch: 30, R squared: 0.22914
Epoch: 31, R squared: 0.22277
Epoch: 32, R squared: 0.22553
Epoch: 33, R squared: 0.23258
Epoch: 34, R squared: 0.23617
Epoch: 35, R squared: 0.23450
Epoch: 36, R squared: 0.22921
Epoch: 37, R squared: 0.23262
Epoch: 38, R squared: 0.23599
Epoch: 39, R squared: 0.23026
1-Conv R squared = 0.23026
_________________________________________________________________
Layer (type)                 Output Shape              Param #   
=================================================================
diffusion_conv_1 (DiffusionC (None, 2153, 10)          210       
_________________________________________________________________
dropout_7 (Dropout)          (None, 2153, 10)          0         
_________________________________________________________________
flatten_3 (Flatten)          (None, 21530)             0         
_________________________________________________________________
dense_5 (Dense)              (None, 100)               2153100   
_________________________________________________________________
dropout_8 (Dropout)          (None, 100)               0         
_________________________________________________________________
dense_6 (Dense)              (None, 1)                 101       
_________________________________________________________________
dropout_9 (Dropout)          (None, 1)                 0         
=================================================================
Total params: 2,153,411
Trainable params: 2,153,411
Non-trainable params: 0
_________________________________________________________________
Epoch: 0, R squared: 0.12765
Epoch: 1, R squared: 0.18280
Epoch: 2, R squared: 0.19997
Epoch: 3, R squared: 0.21130
Epoch: 4, R squared: 0.22678
Epoch: 5, R squared: 0.23228
Epoch: 6, R squared: 0.23458
…
Epoch: 28, R squared: 0.22866
Epoch: 29, R squared: 0.20663
Epoch: 30, R squared: 0.23944
Epoch: 31, R squared: 0.21748
Epoch: 32, R squared: 0.23641
Epoch: 33, R squared: 0.21936
Epoch: 34, R squared: 0.22569
Epoch: 35, R squared: 0.23599
Epoch: 36, R squared: 0.21725
Epoch: 37, R squared: 0.22586
Epoch: 38, R squared: 0.23275
Epoch: 39, R squared: 0.22191
1-Conv R squared = 0.22191
_________________________________________________________________
Layer (type)                 Output Shape              Param #   
=================================================================
diffusion_conv_modified_1 (D (None, 2153, 10)          43270     
_________________________________________________________________
dropout_10 (Dropout)         (None, 2153, 10)          0         
_________________________________________________________________
flatten_4 (Flatten)          (None, 21530)             0         
_________________________________________________________________
dense_7 (Dense)              (None, 100)               2153100   
_________________________________________________________________
dropout_11 (Dropout)         (None, 100)               0         
_________________________________________________________________
dense_8 (Dense)              (None, 1)                 101       
_________________________________________________________________
dropout_12 (Dropout)         (None, 1)                 0         
=================================================================
Total params: 2,196,471
Trainable params: 2,196,471
Non-trainable params: 0
_________________________________________________________________
Epoch: 0, R squared: 0.13325
Epoch: 1, R squared: 0.14659
Epoch: 2, R squared: 0.15057
Epoch: 3, R squared: 0.15805
Epoch: 4, R squared: 0.16969
Epoch: 5, R squared: 0.18549
Epoch: 6, R squared: 0.20005
…
