Random seed = 1984
Training data shape:(6148,2153)
Test data shape:(2045,2153)
('Shape of Prob_transition_tensor:', (2153, 7, 2153))
graph_mat shape:(2153,5)
_________________________________________________________________
Layer (type)                 Output Shape              Param #   
=================================================================
graph_conv_1 (GraphConv)     (None, 2153, 10)          60        
_________________________________________________________________
dropout_1 (Dropout)          (None, 2153, 10)          0         
_________________________________________________________________
flatten_1 (Flatten)          (None, 21530)             0         
_________________________________________________________________
dense_1 (Dense)              (None, 100)               2153100   
_________________________________________________________________
dropout_2 (Dropout)          (None, 100)               0         
_________________________________________________________________
dense_2 (Dense)              (None, 1)                 101       
_________________________________________________________________
dropout_3 (Dropout)          (None, 1)                 0         
=================================================================
Total params: 2,153,261
Trainable params: 2,153,261
Non-trainable params: 0
_________________________________________________________________
Epoch: 0, R squared: 0.13548
Epoch: 1, R squared: 0.13077
Epoch: 2, R squared: 0.14310
Epoch: 3, R squared: 0.15397
Epoch: 4, R squared: 0.16869
Epoch: 5, R squared: 0.16124
Epoch: 6, R squared: 0.18687
…
Epoch: 28, R squared: 0.24918
Epoch: 29, R squared: 0.24309
Epoch: 30, R squared: 0.23656
Epoch: 31, R squared: 0.23084
Epoch: 32, R squared: 0.23142
Epoch: 33, R squared: 0.24067
Epoch: 34, R squared: 0.24383
Epoch: 35, R squared: 0.24281
Epoch: 36, R squared: 0.23716
Epoch: 37, R squared: 0.24461
Epoch: 38, R squared: 0.24522
Epoch: 39, R squared: 0.24006
1-Conv R squared = 0.24006
_________________________________________________________________
Layer (type)                 Output Shape              Param #   
=================================================================
diffusion_conv_1 (DiffusionC (None, 2153, 10)          80        
_________________________________________________________________
dropout_7 (Dropout)          (None, 2153, 10)          0         
_________________________________________________________________
flatten_3 (Flatten)          (None, 21530)             0         
_________________________________________________________________
dense_5 (Dense)              (None, 100)               2153100   
_________________________________________________________________
dropout_8 (Dropout)          (None, 100)               0         
_________________________________________________________________
dense_6 (Dense)              (None, 1)                 101       
_________________________________________________________________
dropout_9 (Dropout)          (None, 1)                 0         
=================================================================
Total params: 2,153,281
Trainable params: 2,153,281
Non-trainable params: 0
_________________________________________________________________
Epoch: 0, R squared: 0.14907
Epoch: 1, R squared: 0.19891
Epoch: 2, R squared: 0.22155
Epoch: 3, R squared: 0.23298
Epoch: 4, R squared: 0.23958
Epoch: 5, R squared: 0.23809
Epoch: 6, R squared: 0.24184
…
Epoch: 28, R squared: 0.23072
Epoch: 29, R squared: 0.21315
Epoch: 30, R squared: 0.23914
Epoch: 31, R squared: 0.21166
Epoch: 32, R squared: 0.23859
Epoch: 33, R squared: 0.22208
Epoch: 34, R squared: 0.22363
Epoch: 35, R squared: 0.21875
Epoch: 36, R squared: 0.20154
Epoch: 37, R squared: 0.21959
Epoch: 38, R squared: 0.21670
Epoch: 39, R squared: 0.21716
1-Conv R squared = 0.21716
_________________________________________________________________
Layer (type)                 Output Shape              Param #   
=================================================================
diffusion_conv_modified_1 (D (None, 2153, 10)          15151     
_________________________________________________________________
dropout_10 (Dropout)         (None, 2153, 10)          0         
_________________________________________________________________
flatten_4 (Flatten)          (None, 21530)             0         
_________________________________________________________________
dense_7 (Dense)              (None, 100)               2153100   
_________________________________________________________________
dropout_11 (Dropout)         (None, 100)               0         
_________________________________________________________________
dense_8 (Dense)              (None, 1)                 101       
_________________________________________________________________
dropout_12 (Dropout)         (None, 1)                 0         
=================================================================
Total params: 2,168,352
Trainable params: 2,168,352
Non-trainable params: 0
_________________________________________________________________
Epoch: 0, R squared: 0.12438
Epoch: 1, R squared: 0.13900
Epoch: 2, R squared: 0.14582
Epoch: 3, R squared: 0.15299
Epoch: 4, R squared: 0.16191
Epoch: 5, R squared: 0.17530
Epoch: 6, R squared: 0.18900
…
