Random seed = 1984
Training data shape:(6148,2153)
Test data shape:(2045,2153)
('Shape of Prob_transition_tensor:', (2153, 13, 2153))
graph_mat shape:(2153,5)
_________________________________________________________________
Layer (type)                 Output Shape              Param #   
=================================================================
graph_conv_1 (GraphConv)     (None, 2153, 10)          60        
_________________________________________________________________
dropout_1 (Dropout)          (None, 2153, 10)          0         
_________________________________________________________________
flatten_1 (Flatten)          (None, 21530)             0         
_________________________________________________________________
dense_1 (Dense)              (None, 100)               2153100   
_________________________________________________________________
dropout_2 (Dropout)          (None, 100)               0         
_________________________________________________________________
dense_2 (Dense)              (None, 1)                 101       
_________________________________________________________________
dropout_3 (Dropout)          (None, 1)                 0         
=================================================================
Total params: 2,153,261
Trainable params: 2,153,261
Non-trainable params: 0
_________________________________________________________________
Epoch: 0, R squared: 0.08540
Epoch: 1, R squared: 0.10212
Epoch: 2, R squared: 0.15512
Epoch: 3, R squared: 0.17475
Epoch: 4, R squared: 0.19495
Epoch: 5, R squared: 0.19175
Epoch: 6, R squared: 0.21856
…
Epoch: 28, R squared: 0.24419
Epoch: 29, R squared: 0.23659
Epoch: 30, R squared: 0.23141
Epoch: 31, R squared: 0.22578
Epoch: 32, R squared: 0.22713
Epoch: 33, R squared: 0.23542
Epoch: 34, R squared: 0.23883
Epoch: 35, R squared: 0.23769
Epoch: 36, R squared: 0.23284
Epoch: 37, R squared: 0.23798
Epoch: 38, R squared: 0.23936
Epoch: 39, R squared: 0.23485
1-Conv R squared = 0.23485
_________________________________________________________________
Layer (type)                 Output Shape              Param #   
=================================================================
diffusion_conv_1 (DiffusionC (None, 2153, 10)          140       
_________________________________________________________________
dropout_7 (Dropout)          (None, 2153, 10)          0         
_________________________________________________________________
flatten_3 (Flatten)          (None, 21530)             0         
_________________________________________________________________
dense_5 (Dense)              (None, 100)               2153100   
_________________________________________________________________
dropout_8 (Dropout)          (None, 100)               0         
_________________________________________________________________
dense_6 (Dense)              (None, 1)                 101       
_________________________________________________________________
dropout_9 (Dropout)          (None, 1)                 0         
=================================================================
Total params: 2,153,341
Trainable params: 2,153,341
Non-trainable params: 0
_________________________________________________________________
Epoch: 0, R squared: 0.14635
Epoch: 1, R squared: 0.19449
Epoch: 2, R squared: 0.20859
Epoch: 3, R squared: 0.21799
Epoch: 4, R squared: 0.23064
Epoch: 5, R squared: 0.23542
Epoch: 6, R squared: 0.23690
…
Epoch: 28, R squared: 0.24156
Epoch: 29, R squared: 0.21510
Epoch: 30, R squared: 0.23310
Epoch: 31, R squared: 0.22050
Epoch: 32, R squared: 0.23593
Epoch: 33, R squared: 0.22934
Epoch: 34, R squared: 0.23068
Epoch: 35, R squared: 0.22171
Epoch: 36, R squared: 0.22411
Epoch: 37, R squared: 0.22635
Epoch: 38, R squared: 0.22985
Epoch: 39, R squared: 0.23182
1-Conv R squared = 0.23182
_________________________________________________________________
Layer (type)                 Output Shape              Param #   
=================================================================
diffusion_conv_modified_1 (D (None, 2153, 10)          28129     
_________________________________________________________________
dropout_10 (Dropout)         (None, 2153, 10)          0         
_________________________________________________________________
flatten_4 (Flatten)          (None, 21530)             0         
_________________________________________________________________
dense_7 (Dense)              (None, 100)               2153100   
_________________________________________________________________
dropout_11 (Dropout)         (None, 100)               0         
_________________________________________________________________
dense_8 (Dense)              (None, 1)                 101       
_________________________________________________________________
dropout_12 (Dropout)         (None, 1)                 0         
=================================================================
Total params: 2,181,330
Trainable params: 2,181,330
Non-trainable params: 0
_________________________________________________________________
Epoch: 0, R squared: 0.12629
Epoch: 1, R squared: 0.14064
Epoch: 2, R squared: 0.14705
Epoch: 3, R squared: 0.15438
Epoch: 4, R squared: 0.16378
Epoch: 5, R squared: 0.17761
Epoch: 6, R squared: 0.19160
…
