Random seed = 1984
Training data shape:(6148,2153)
Test data shape:(2045,2153)
('Shape of Prob_transition_tensor:', (2153, 2, 2153))
graph_mat shape:(2153,5)
_________________________________________________________________
Layer (type)                 Output Shape              Param #   
=================================================================
graph_conv_1 (GraphConv)     (None, 2153, 10)          60        
_________________________________________________________________
dropout_1 (Dropout)          (None, 2153, 10)          0         
_________________________________________________________________
flatten_1 (Flatten)          (None, 21530)             0         
_________________________________________________________________
dense_1 (Dense)              (None, 100)               2153100   
_________________________________________________________________
dropout_2 (Dropout)          (None, 100)               0         
_________________________________________________________________
dense_2 (Dense)              (None, 1)                 101       
_________________________________________________________________
dropout_3 (Dropout)          (None, 1)                 0         
=================================================================
Total params: 2,153,261
Trainable params: 2,153,261
Non-trainable params: 0
_________________________________________________________________
Epoch: 0, R squared: 0.17329
Epoch: 1, R squared: 0.18394
Epoch: 2, R squared: 0.20511
Epoch: 3, R squared: 0.21500
Epoch: 4, R squared: 0.22289
Epoch: 5, R squared: 0.22171
Epoch: 6, R squared: 0.23704
…
Epoch: 28, R squared: 0.24819
Epoch: 29, R squared: 0.24182
Epoch: 30, R squared: 0.23629
Epoch: 31, R squared: 0.22978
Epoch: 32, R squared: 0.23151
Epoch: 33, R squared: 0.23957
Epoch: 34, R squared: 0.24167
Epoch: 35, R squared: 0.24091
Epoch: 36, R squared: 0.23687
Epoch: 37, R squared: 0.24076
Epoch: 38, R squared: 0.24328
Epoch: 39, R squared: 0.23701
1-Conv R squared = 0.23701
_________________________________________________________________
Layer (type)                 Output Shape              Param #   
=================================================================
diffusion_conv_1 (DiffusionC (None, 2153, 10)          30        
_________________________________________________________________
dropout_7 (Dropout)          (None, 2153, 10)          0         
_________________________________________________________________
flatten_3 (Flatten)          (None, 21530)             0         
_________________________________________________________________
dense_5 (Dense)              (None, 100)               2153100   
_________________________________________________________________
dropout_8 (Dropout)          (None, 100)               0         
_________________________________________________________________
dense_6 (Dense)              (None, 1)                 101       
_________________________________________________________________
dropout_9 (Dropout)          (None, 1)                 0         
=================================================================
Total params: 2,153,231
Trainable params: 2,153,231
Non-trainable params: 0
_________________________________________________________________
Epoch: 0, R squared: 0.17106
Epoch: 1, R squared: 0.20008
Epoch: 2, R squared: 0.22767
Epoch: 3, R squared: 0.24188
Epoch: 4, R squared: 0.25575
Epoch: 5, R squared: 0.25573
Epoch: 6, R squared: 0.25441
…
Epoch: 28, R squared: 0.23750
Epoch: 29, R squared: 0.21975
Epoch: 30, R squared: 0.24527
Epoch: 31, R squared: 0.21993
Epoch: 32, R squared: 0.24771
Epoch: 33, R squared: 0.22307
Epoch: 34, R squared: 0.22911
Epoch: 35, R squared: 0.23271
Epoch: 36, R squared: 0.22017
Epoch: 37, R squared: 0.22089
Epoch: 38, R squared: 0.22722
Epoch: 39, R squared: 0.22310
1-Conv R squared = 0.22310
_________________________________________________________________
Layer (type)                 Output Shape              Param #   
=================================================================
diffusion_conv_modified_1 (D (None, 2153, 10)          4336      
_________________________________________________________________
dropout_10 (Dropout)         (None, 2153, 10)          0         
_________________________________________________________________
flatten_4 (Flatten)          (None, 21530)             0         
_________________________________________________________________
dense_7 (Dense)              (None, 100)               2153100   
_________________________________________________________________
dropout_11 (Dropout)         (None, 100)               0         
_________________________________________________________________
dense_8 (Dense)              (None, 1)                 101       
_________________________________________________________________
dropout_12 (Dropout)         (None, 1)                 0         
=================================================================
Total params: 2,157,537
Trainable params: 2,157,537
Non-trainable params: 0
_________________________________________________________________
Epoch: 0, R squared: 0.14479
Epoch: 1, R squared: 0.16561
Epoch: 2, R squared: 0.17929
Epoch: 3, R squared: 0.18461
Epoch: 4, R squared: 0.18950
Epoch: 5, R squared: 0.20117
Epoch: 6, R squared: 0.21242
…
