Random seed = 1984
Training data shape:(6148,2153)
Test data shape:(2045,2153)
('Shape of Prob_transition_tensor:', (2153, 3, 2153))
graph_mat shape:(2153,5)
_________________________________________________________________
Layer (type)                 Output Shape              Param #   
=================================================================
graph_conv_1 (GraphConv)     (None, 2153, 10)          60        
_________________________________________________________________
dropout_1 (Dropout)          (None, 2153, 10)          0         
_________________________________________________________________
flatten_1 (Flatten)          (None, 21530)             0         
_________________________________________________________________
dense_1 (Dense)              (None, 100)               2153100   
_________________________________________________________________
dropout_2 (Dropout)          (None, 100)               0         
_________________________________________________________________
dense_2 (Dense)              (None, 1)                 101       
_________________________________________________________________
dropout_3 (Dropout)          (None, 1)                 0         
=================================================================
Total params: 2,153,261
Trainable params: 2,153,261
Non-trainable params: 0
_________________________________________________________________
Epoch: 0, R squared: 0.16960
Epoch: 1, R squared: 0.17809
Epoch: 2, R squared: 0.19684
Epoch: 3, R squared: 0.20492
Epoch: 4, R squared: 0.21613
Epoch: 5, R squared: 0.21389
Epoch: 6, R squared: 0.23167
…
Epoch: 28, R squared: 0.24813
Epoch: 29, R squared: 0.24187
Epoch: 30, R squared: 0.23632
Epoch: 31, R squared: 0.23079
Epoch: 32, R squared: 0.23090
Epoch: 33, R squared: 0.24020
Epoch: 34, R squared: 0.24211
Epoch: 35, R squared: 0.24119
Epoch: 36, R squared: 0.23742
Epoch: 37, R squared: 0.24413
Epoch: 38, R squared: 0.24495
Epoch: 39, R squared: 0.23925
1-Conv R squared = 0.23925
_________________________________________________________________
Layer (type)                 Output Shape              Param #   
=================================================================
diffusion_conv_1 (DiffusionC (None, 2153, 10)          40        
_________________________________________________________________
dropout_7 (Dropout)          (None, 2153, 10)          0         
_________________________________________________________________
flatten_3 (Flatten)          (None, 21530)             0         
_________________________________________________________________
dense_5 (Dense)              (None, 100)               2153100   
_________________________________________________________________
dropout_8 (Dropout)          (None, 100)               0         
_________________________________________________________________
dense_6 (Dense)              (None, 1)                 101       
_________________________________________________________________
dropout_9 (Dropout)          (None, 1)                 0         
=================================================================
Total params: 2,153,241
Trainable params: 2,153,241
Non-trainable params: 0
_________________________________________________________________
Epoch: 0, R squared: 0.16295
Epoch: 1, R squared: 0.19804
Epoch: 2, R squared: 0.21812
Epoch: 3, R squared: 0.23399
Epoch: 4, R squared: 0.24977
Epoch: 5, R squared: 0.25444
Epoch: 6, R squared: 0.25571
…
Epoch: 28, R squared: 0.24566
Epoch: 29, R squared: 0.22156
Epoch: 30, R squared: 0.24525
Epoch: 31, R squared: 0.22094
Epoch: 32, R squared: 0.24700
Epoch: 33, R squared: 0.22761
Epoch: 34, R squared: 0.23094
Epoch: 35, R squared: 0.23704
Epoch: 36, R squared: 0.22628
Epoch: 37, R squared: 0.22029
Epoch: 38, R squared: 0.23101
Epoch: 39, R squared: 0.23093
1-Conv R squared = 0.23093
_________________________________________________________________
Layer (type)                 Output Shape              Param #   
=================================================================
diffusion_conv_modified_1 (D (None, 2153, 10)          6499      
_________________________________________________________________
dropout_10 (Dropout)         (None, 2153, 10)          0         
_________________________________________________________________
flatten_4 (Flatten)          (None, 21530)             0         
_________________________________________________________________
dense_7 (Dense)              (None, 100)               2153100   
_________________________________________________________________
dropout_11 (Dropout)         (None, 100)               0         
_________________________________________________________________
dense_8 (Dense)              (None, 1)                 101       
_________________________________________________________________
dropout_12 (Dropout)         (None, 1)                 0         
=================================================================
Total params: 2,159,700
Trainable params: 2,159,700
Non-trainable params: 0
_________________________________________________________________
Epoch: 0, R squared: 0.12600
Epoch: 1, R squared: 0.14440
Epoch: 2, R squared: 0.15419
Epoch: 3, R squared: 0.16149
Epoch: 4, R squared: 0.16827
Epoch: 5, R squared: 0.17707
Epoch: 6, R squared: 0.18679
…
