Random seed = 1984
Training data shape:(6148,2153)
Test data shape:(2045,2153)
('Shape of Prob_transition_tensor:', (2153, 4, 2153))
graph_mat shape:(2153,5)
_________________________________________________________________
Layer (type)                 Output Shape              Param #   
=================================================================
graph_conv_1 (GraphConv)     (None, 2153, 10)          60        
_________________________________________________________________
dropout_1 (Dropout)          (None, 2153, 10)          0         
_________________________________________________________________
flatten_1 (Flatten)          (None, 21530)             0         
_________________________________________________________________
dense_1 (Dense)              (None, 100)               2153100   
_________________________________________________________________
dropout_2 (Dropout)          (None, 100)               0         
_________________________________________________________________
dense_2 (Dense)              (None, 1)                 101       
_________________________________________________________________
dropout_3 (Dropout)          (None, 1)                 0         
=================================================================
Total params: 2,153,261
Trainable params: 2,153,261
Non-trainable params: 0
_________________________________________________________________
Epoch: 0, R squared: 0.17326
Epoch: 1, R squared: 0.17342
Epoch: 2, R squared: 0.18937
Epoch: 3, R squared: 0.19477
Epoch: 4, R squared: 0.20699
Epoch: 5, R squared: 0.20168
Epoch: 6, R squared: 0.22278
…
Epoch: 28, R squared: 0.24986
Epoch: 29, R squared: 0.24474
Epoch: 30, R squared: 0.23774
Epoch: 31, R squared: 0.23278
Epoch: 32, R squared: 0.23287
Epoch: 33, R squared: 0.24235
Epoch: 34, R squared: 0.24452
Epoch: 35, R squared: 0.24417
Epoch: 36, R squared: 0.23770
Epoch: 37, R squared: 0.24702
Epoch: 38, R squared: 0.24811
Epoch: 39, R squared: 0.24207
1-Conv R squared = 0.24207
_________________________________________________________________
Layer (type)                 Output Shape              Param #   
=================================================================
diffusion_conv_1 (DiffusionC (None, 2153, 10)          50        
_________________________________________________________________
dropout_7 (Dropout)          (None, 2153, 10)          0         
_________________________________________________________________
flatten_3 (Flatten)          (None, 21530)             0         
_________________________________________________________________
dense_5 (Dense)              (None, 100)               2153100   
_________________________________________________________________
dropout_8 (Dropout)          (None, 100)               0         
_________________________________________________________________
dense_6 (Dense)              (None, 1)                 101       
_________________________________________________________________
dropout_9 (Dropout)          (None, 1)                 0         
=================================================================
Total params: 2,153,251
Trainable params: 2,153,251
Non-trainable params: 0
_________________________________________________________________
Epoch: 0, R squared: 0.15087
Epoch: 1, R squared: 0.19413
Epoch: 2, R squared: 0.21648
Epoch: 3, R squared: 0.23447
Epoch: 4, R squared: 0.24796
Epoch: 5, R squared: 0.25287
Epoch: 6, R squared: 0.25326
…
Epoch: 28, R squared: 0.23421
Epoch: 29, R squared: 0.22327
Epoch: 30, R squared: 0.24135
Epoch: 31, R squared: 0.22247
Epoch: 32, R squared: 0.24678
Epoch: 33, R squared: 0.23182
Epoch: 34, R squared: 0.23159
Epoch: 35, R squared: 0.22965
Epoch: 36, R squared: 0.21616
Epoch: 37, R squared: 0.22704
Epoch: 38, R squared: 0.22225
Epoch: 39, R squared: 0.21876
1-Conv R squared = 0.21876
_________________________________________________________________
Layer (type)                 Output Shape              Param #   
=================================================================
diffusion_conv_modified_1 (D (None, 2153, 10)          8662      
_________________________________________________________________
dropout_10 (Dropout)         (None, 2153, 10)          0         
_________________________________________________________________
flatten_4 (Flatten)          (None, 21530)             0         
_________________________________________________________________
dense_7 (Dense)              (None, 100)               2153100   
_________________________________________________________________
dropout_11 (Dropout)         (None, 100)               0         
_________________________________________________________________
dense_8 (Dense)              (None, 1)                 101       
_________________________________________________________________
dropout_12 (Dropout)         (None, 1)                 0         
=================================================================
Total params: 2,161,863
Trainable params: 2,161,863
Non-trainable params: 0
_________________________________________________________________
Epoch: 0, R squared: 0.12703
Epoch: 1, R squared: 0.14404
Epoch: 2, R squared: 0.15284
Epoch: 3, R squared: 0.15951
Epoch: 4, R squared: 0.16569
Epoch: 5, R squared: 0.17372
Epoch: 6, R squared: 0.18302
…
