Random seed = 1984
Training data shape:(6148,2153)
Test data shape:(2045,2153)
('Shape of Prob_transition_tensor:', (2153, 15, 2153))
graph_mat shape:(2153,5)
_________________________________________________________________
Layer (type)                 Output Shape              Param #   
=================================================================
graph_conv_1 (GraphConv)     (None, 2153, 10)          60        
_________________________________________________________________
dropout_1 (Dropout)          (None, 2153, 10)          0         
_________________________________________________________________
flatten_1 (Flatten)          (None, 21530)             0         
_________________________________________________________________
dense_1 (Dense)              (None, 100)               2153100   
_________________________________________________________________
dropout_2 (Dropout)          (None, 100)               0         
_________________________________________________________________
dense_2 (Dense)              (None, 1)                 101       
_________________________________________________________________
dropout_3 (Dropout)          (None, 1)                 0         
=================================================================
Total params: 2,153,261
Trainable params: 2,153,261
Non-trainable params: 0
_________________________________________________________________
Epoch: 0, R squared: 0.07474
Epoch: 1, R squared: 0.10204
Epoch: 2, R squared: 0.15530
Epoch: 3, R squared: 0.18305
Epoch: 4, R squared: 0.20588
Epoch: 5, R squared: 0.20832
Epoch: 6, R squared: 0.23145
…
Epoch: 28, R squared: 0.24139
Epoch: 29, R squared: 0.23363
Epoch: 30, R squared: 0.22970
Epoch: 31, R squared: 0.22343
Epoch: 32, R squared: 0.22567
Epoch: 33, R squared: 0.23322
Epoch: 34, R squared: 0.23559
Epoch: 35, R squared: 0.23364
Epoch: 36, R squared: 0.23021
Epoch: 37, R squared: 0.23344
Epoch: 38, R squared: 0.23722
Epoch: 39, R squared: 0.23143
1-Conv R squared = 0.23143
_________________________________________________________________
Layer (type)                 Output Shape              Param #   
=================================================================
diffusion_conv_1 (DiffusionC (None, 2153, 10)          160       
_________________________________________________________________
dropout_7 (Dropout)          (None, 2153, 10)          0         
_________________________________________________________________
flatten_3 (Flatten)          (None, 21530)             0         
_________________________________________________________________
dense_5 (Dense)              (None, 100)               2153100   
_________________________________________________________________
dropout_8 (Dropout)          (None, 100)               0         
_________________________________________________________________
dense_6 (Dense)              (None, 1)                 101       
_________________________________________________________________
dropout_9 (Dropout)          (None, 1)                 0         
=================================================================
Total params: 2,153,361
Trainable params: 2,153,361
Non-trainable params: 0
_________________________________________________________________
Epoch: 0, R squared: 0.13092
Epoch: 1, R squared: 0.18265
Epoch: 2, R squared: 0.20845
Epoch: 3, R squared: 0.21915
Epoch: 4, R squared: 0.22828
Epoch: 5, R squared: 0.23360
Epoch: 6, R squared: 0.23494
…
Epoch: 28, R squared: 0.23365
Epoch: 29, R squared: 0.21594
Epoch: 30, R squared: 0.23434
Epoch: 31, R squared: 0.22039
Epoch: 32, R squared: 0.23566
Epoch: 33, R squared: 0.23380
Epoch: 34, R squared: 0.22952
Epoch: 35, R squared: 0.22157
Epoch: 36, R squared: 0.21950
Epoch: 37, R squared: 0.23041
Epoch: 38, R squared: 0.22750
Epoch: 39, R squared: 0.22978
1-Conv R squared = 0.22978
_________________________________________________________________
Layer (type)                 Output Shape              Param #   
=================================================================
diffusion_conv_modified_1 (D (None, 2153, 10)          32455     
_________________________________________________________________
dropout_10 (Dropout)         (None, 2153, 10)          0         
_________________________________________________________________
flatten_4 (Flatten)          (None, 21530)             0         
_________________________________________________________________
dense_7 (Dense)              (None, 100)               2153100   
_________________________________________________________________
dropout_11 (Dropout)         (None, 100)               0         
_________________________________________________________________
dense_8 (Dense)              (None, 1)                 101       
_________________________________________________________________
dropout_12 (Dropout)         (None, 1)                 0         
=================================================================
Total params: 2,185,656
Trainable params: 2,185,656
Non-trainable params: 0
_________________________________________________________________
Epoch: 0, R squared: 0.12227
Epoch: 1, R squared: 0.13846
Epoch: 2, R squared: 0.14587
Epoch: 3, R squared: 0.15413
Epoch: 4, R squared: 0.16463
Epoch: 5, R squared: 0.17934
Epoch: 6, R squared: 0.19360
…
