Random seed = 1984
Training data shape:(6148,2153)
Test data shape:(2045,2153)
('Shape of Prob_transition_tensor:', (2153, 13, 2153))
graph_mat shape:(2153,5)
_________________________________________________________________
Layer (type)                 Output Shape              Param #   
=================================================================
graph_conv_1 (GraphConv)     (None, 2153, 10)          60        
_________________________________________________________________
dropout_1 (Dropout)          (None, 2153, 10)          0         
_________________________________________________________________
flatten_1 (Flatten)          (None, 21530)             0         
_________________________________________________________________
dense_1 (Dense)              (None, 100)               2153100   
_________________________________________________________________
dropout_2 (Dropout)          (None, 100)               0         
_________________________________________________________________
dense_2 (Dense)              (None, 1)                 101       
_________________________________________________________________
dropout_3 (Dropout)          (None, 1)                 0         
=================================================================
Total params: 2,153,261
Trainable params: 2,153,261
Non-trainable params: 0
_________________________________________________________________
Epoch: 0, R squared: 0.08541
Epoch: 1, R squared: 0.10204
Epoch: 2, R squared: 0.15517
Epoch: 3, R squared: 0.17468
Epoch: 4, R squared: 0.19503
Epoch: 5, R squared: 0.19230
Epoch: 6, R squared: 0.21854
…
Epoch: 28, R squared: 0.24417
Epoch: 29, R squared: 0.23659
Epoch: 30, R squared: 0.23144
Epoch: 31, R squared: 0.22578
Epoch: 32, R squared: 0.22717
Epoch: 33, R squared: 0.23542
Epoch: 34, R squared: 0.23882
Epoch: 35, R squared: 0.23769
Epoch: 36, R squared: 0.23288
Epoch: 37, R squared: 0.23797
Epoch: 38, R squared: 0.23938
Epoch: 39, R squared: 0.23485
1-Conv R squared = 0.23485
_________________________________________________________________
Layer (type)                 Output Shape              Param #   
=================================================================
diffusion_conv_1 (DiffusionC (None, 2153, 10)          140       
_________________________________________________________________
dropout_7 (Dropout)          (None, 2153, 10)          0         
_________________________________________________________________
flatten_3 (Flatten)          (None, 21530)             0         
_________________________________________________________________
dense_5 (Dense)              (None, 100)               2153100   
_________________________________________________________________
dropout_8 (Dropout)          (None, 100)               0         
_________________________________________________________________
dense_6 (Dense)              (None, 1)                 101       
_________________________________________________________________
dropout_9 (Dropout)          (None, 1)                 0         
=================================================================
Total params: 2,153,341
Trainable params: 2,153,341
Non-trainable params: 0
_________________________________________________________________
Epoch: 0, R squared: 0.14586
Epoch: 1, R squared: 0.19353
Epoch: 2, R squared: 0.20824
Epoch: 3, R squared: 0.21794
Epoch: 4, R squared: 0.23038
Epoch: 5, R squared: 0.23522
Epoch: 6, R squared: 0.23684
…
Epoch: 28, R squared: 0.23518
Epoch: 29, R squared: 0.21490
Epoch: 30, R squared: 0.23773
Epoch: 31, R squared: 0.22134
Epoch: 32, R squared: 0.23766
Epoch: 33, R squared: 0.23079
Epoch: 34, R squared: 0.22929
Epoch: 35, R squared: 0.22306
Epoch: 36, R squared: 0.22055
Epoch: 37, R squared: 0.22728
Epoch: 38, R squared: 0.22953
Epoch: 39, R squared: 0.23213
1-Conv R squared = 0.23213
_________________________________________________________________
Layer (type)                 Output Shape              Param #   
=================================================================
diffusion_conv_modified_1 (D (None, 2153, 10)          28129     
_________________________________________________________________
dropout_10 (Dropout)         (None, 2153, 10)          0         
_________________________________________________________________
flatten_4 (Flatten)          (None, 21530)             0         
_________________________________________________________________
dense_7 (Dense)              (None, 100)               2153100   
_________________________________________________________________
dropout_11 (Dropout)         (None, 100)               0         
_________________________________________________________________
dense_8 (Dense)              (None, 1)                 101       
_________________________________________________________________
dropout_12 (Dropout)         (None, 1)                 0         
=================================================================
Total params: 2,181,330
Trainable params: 2,181,330
Non-trainable params: 0
_________________________________________________________________
Epoch: 0, R squared: 0.12668
Epoch: 1, R squared: 0.14118
Epoch: 2, R squared: 0.14696
Epoch: 3, R squared: 0.15329
Epoch: 4, R squared: 0.16111
Epoch: 5, R squared: 0.17328
Epoch: 6, R squared: 0.18750
…
