Random seed = 1984
Training data shape:(6148,2153)
Test data shape:(2045,2153)
('Shape of Prob_transition_tensor:', (2153, 7, 2153))
graph_mat shape:(2153,5)
_________________________________________________________________
Layer (type)                 Output Shape              Param #   
=================================================================
graph_conv_1 (GraphConv)     (None, 2153, 10)          60        
_________________________________________________________________
dropout_1 (Dropout)          (None, 2153, 10)          0         
_________________________________________________________________
flatten_1 (Flatten)          (None, 21530)             0         
_________________________________________________________________
dense_1 (Dense)              (None, 100)               2153100   
_________________________________________________________________
dropout_2 (Dropout)          (None, 100)               0         
_________________________________________________________________
dense_2 (Dense)              (None, 1)                 101       
_________________________________________________________________
dropout_3 (Dropout)          (None, 1)                 0         
=================================================================
Total params: 2,153,261
Trainable params: 2,153,261
Non-trainable params: 0
_________________________________________________________________
Epoch: 0, R squared: 0.13548
Epoch: 1, R squared: 0.13084
Epoch: 2, R squared: 0.14307
Epoch: 3, R squared: 0.15394
Epoch: 4, R squared: 0.16873
Epoch: 5, R squared: 0.16130
Epoch: 6, R squared: 0.18688
…
Epoch: 28, R squared: 0.24935
Epoch: 29, R squared: 0.24306
Epoch: 30, R squared: 0.23615
Epoch: 31, R squared: 0.23096
Epoch: 32, R squared: 0.23074
Epoch: 33, R squared: 0.24064
Epoch: 34, R squared: 0.24383
Epoch: 35, R squared: 0.24274
Epoch: 36, R squared: 0.23628
Epoch: 37, R squared: 0.24478
Epoch: 38, R squared: 0.24494
Epoch: 39, R squared: 0.23988
1-Conv R squared = 0.23988
_________________________________________________________________
Layer (type)                 Output Shape              Param #   
=================================================================
diffusion_conv_1 (DiffusionC (None, 2153, 10)          80        
_________________________________________________________________
dropout_7 (Dropout)          (None, 2153, 10)          0         
_________________________________________________________________
flatten_3 (Flatten)          (None, 21530)             0         
_________________________________________________________________
dense_5 (Dense)              (None, 100)               2153100   
_________________________________________________________________
dropout_8 (Dropout)          (None, 100)               0         
_________________________________________________________________
dense_6 (Dense)              (None, 1)                 101       
_________________________________________________________________
dropout_9 (Dropout)          (None, 1)                 0         
=================================================================
Total params: 2,153,281
Trainable params: 2,153,281
Non-trainable params: 0
_________________________________________________________________
Epoch: 0, R squared: 0.14911
Epoch: 1, R squared: 0.19896
Epoch: 2, R squared: 0.22176
Epoch: 3, R squared: 0.23295
Epoch: 4, R squared: 0.23961
Epoch: 5, R squared: 0.23783
Epoch: 6, R squared: 0.24277
…
Epoch: 28, R squared: 0.23468
Epoch: 29, R squared: 0.21328
Epoch: 30, R squared: 0.23994
Epoch: 31, R squared: 0.21088
Epoch: 32, R squared: 0.23965
Epoch: 33, R squared: 0.22039
Epoch: 34, R squared: 0.22446
Epoch: 35, R squared: 0.22002
Epoch: 36, R squared: 0.20383
Epoch: 37, R squared: 0.21827
Epoch: 38, R squared: 0.21697
Epoch: 39, R squared: 0.21809
1-Conv R squared = 0.21809
_________________________________________________________________
Layer (type)                 Output Shape              Param #   
=================================================================
diffusion_conv_modified_1 (D (None, 2153, 10)          15151     
_________________________________________________________________
dropout_10 (Dropout)         (None, 2153, 10)          0         
_________________________________________________________________
flatten_4 (Flatten)          (None, 21530)             0         
_________________________________________________________________
dense_7 (Dense)              (None, 100)               2153100   
_________________________________________________________________
dropout_11 (Dropout)         (None, 100)               0         
_________________________________________________________________
dense_8 (Dense)              (None, 1)                 101       
_________________________________________________________________
dropout_12 (Dropout)         (None, 1)                 0         
=================================================================
Total params: 2,168,352
Trainable params: 2,168,352
Non-trainable params: 0
_________________________________________________________________
Epoch: 0, R squared: 0.13051
Epoch: 1, R squared: 0.14398
Epoch: 2, R squared: 0.14801
Epoch: 3, R squared: 0.15317
Epoch: 4, R squared: 0.16188
Epoch: 5, R squared: 0.17556
Epoch: 6, R squared: 0.18862
…
