Random seed = 1984
Training data shape:(6148,2153)
Test data shape:(2045,2153)
('Shape of Prob_transition_tensor:', (2153, 3, 2153))
graph_mat shape:(2153,5)
_________________________________________________________________
Layer (type)                 Output Shape              Param #   
=================================================================
graph_conv_1 (GraphConv)     (None, 2153, 10)          60        
_________________________________________________________________
dropout_1 (Dropout)          (None, 2153, 10)          0         
_________________________________________________________________
flatten_1 (Flatten)          (None, 21530)             0         
_________________________________________________________________
dense_1 (Dense)              (None, 100)               2153100   
_________________________________________________________________
dropout_2 (Dropout)          (None, 100)               0         
_________________________________________________________________
dense_2 (Dense)              (None, 1)                 101       
_________________________________________________________________
dropout_3 (Dropout)          (None, 1)                 0         
=================================================================
Total params: 2,153,261
Trainable params: 2,153,261
Non-trainable params: 0
_________________________________________________________________
Epoch: 0, R squared: 0.16914
Epoch: 1, R squared: 0.17789
Epoch: 2, R squared: 0.19634
Epoch: 3, R squared: 0.20439
Epoch: 4, R squared: 0.21566
Epoch: 5, R squared: 0.21368
Epoch: 6, R squared: 0.23136
…
Epoch: 28, R squared: 0.24826
Epoch: 29, R squared: 0.24200
Epoch: 30, R squared: 0.23644
Epoch: 31, R squared: 0.23094
Epoch: 32, R squared: 0.23112
Epoch: 33, R squared: 0.24038
Epoch: 34, R squared: 0.24231
Epoch: 35, R squared: 0.24139
Epoch: 36, R squared: 0.23744
Epoch: 37, R squared: 0.24448
Epoch: 38, R squared: 0.24511
Epoch: 39, R squared: 0.23952
1-Conv R squared = 0.23952
_________________________________________________________________
Layer (type)                 Output Shape              Param #   
=================================================================
diffusion_conv_1 (DiffusionC (None, 2153, 10)          40        
_________________________________________________________________
dropout_7 (Dropout)          (None, 2153, 10)          0         
_________________________________________________________________
flatten_3 (Flatten)          (None, 21530)             0         
_________________________________________________________________
dense_5 (Dense)              (None, 100)               2153100   
_________________________________________________________________
dropout_8 (Dropout)          (None, 100)               0         
_________________________________________________________________
dense_6 (Dense)              (None, 1)                 101       
_________________________________________________________________
dropout_9 (Dropout)          (None, 1)                 0         
=================================================================
Total params: 2,153,241
Trainable params: 2,153,241
Non-trainable params: 0
_________________________________________________________________
Epoch: 0, R squared: 0.16386
Epoch: 1, R squared: 0.19864
Epoch: 2, R squared: 0.21871
Epoch: 3, R squared: 0.23459
Epoch: 4, R squared: 0.25053
Epoch: 5, R squared: 0.25491
Epoch: 6, R squared: 0.25579
…
Epoch: 28, R squared: 0.24631
Epoch: 29, R squared: 0.22189
Epoch: 30, R squared: 0.23969
Epoch: 31, R squared: 0.21949
Epoch: 32, R squared: 0.24527
Epoch: 33, R squared: 0.22712
Epoch: 34, R squared: 0.23018
Epoch: 35, R squared: 0.23822
Epoch: 36, R squared: 0.22429
Epoch: 37, R squared: 0.22110
Epoch: 38, R squared: 0.22841
Epoch: 39, R squared: 0.22808
1-Conv R squared = 0.22808
_________________________________________________________________
Layer (type)                 Output Shape              Param #   
=================================================================
diffusion_conv_modified_1 (D (None, 2153, 10)          6499      
_________________________________________________________________
dropout_10 (Dropout)         (None, 2153, 10)          0         
_________________________________________________________________
flatten_4 (Flatten)          (None, 21530)             0         
_________________________________________________________________
dense_7 (Dense)              (None, 100)               2153100   
_________________________________________________________________
dropout_11 (Dropout)         (None, 100)               0         
_________________________________________________________________
dense_8 (Dense)              (None, 1)                 101       
_________________________________________________________________
dropout_12 (Dropout)         (None, 1)                 0         
=================================================================
Total params: 2,159,700
Trainable params: 2,159,700
Non-trainable params: 0
_________________________________________________________________
Epoch: 0, R squared: 0.12609
Epoch: 1, R squared: 0.14380
Epoch: 2, R squared: 0.15360
Epoch: 3, R squared: 0.16085
Epoch: 4, R squared: 0.16755
Epoch: 5, R squared: 0.17596
Epoch: 6, R squared: 0.18520
…
