Random seed = 1984
Training data shape:(6148,2153)
Test data shape:(2045,2153)
('Shape of Prob_transition_tensor:', (2153, 4, 2153))
graph_mat shape:(2153,5)
_________________________________________________________________
Layer (type)                 Output Shape              Param #   
=================================================================
graph_conv_1 (GraphConv)     (None, 2153, 10)          60        
_________________________________________________________________
dropout_1 (Dropout)          (None, 2153, 10)          0         
_________________________________________________________________
flatten_1 (Flatten)          (None, 21530)             0         
_________________________________________________________________
dense_1 (Dense)              (None, 100)               2153100   
_________________________________________________________________
dropout_2 (Dropout)          (None, 100)               0         
_________________________________________________________________
dense_2 (Dense)              (None, 1)                 101       
_________________________________________________________________
dropout_3 (Dropout)          (None, 1)                 0         
=================================================================
Total params: 2,153,261
Trainable params: 2,153,261
Non-trainable params: 0
_________________________________________________________________
Epoch: 0, R squared: 0.17326
Epoch: 1, R squared: 0.17342
Epoch: 2, R squared: 0.18938
Epoch: 3, R squared: 0.19480
Epoch: 4, R squared: 0.20702
Epoch: 5, R squared: 0.20168
Epoch: 6, R squared: 0.22279
…
Epoch: 28, R squared: 0.24996
Epoch: 29, R squared: 0.24490
Epoch: 30, R squared: 0.23799
Epoch: 31, R squared: 0.23294
Epoch: 32, R squared: 0.23319
Epoch: 33, R squared: 0.24252
Epoch: 34, R squared: 0.24452
Epoch: 35, R squared: 0.24438
Epoch: 36, R squared: 0.23789
Epoch: 37, R squared: 0.24703
Epoch: 38, R squared: 0.24820
Epoch: 39, R squared: 0.24206
1-Conv R squared = 0.24206
_________________________________________________________________
Layer (type)                 Output Shape              Param #   
=================================================================
diffusion_conv_1 (DiffusionC (None, 2153, 10)          50        
_________________________________________________________________
dropout_7 (Dropout)          (None, 2153, 10)          0         
_________________________________________________________________
flatten_3 (Flatten)          (None, 21530)             0         
_________________________________________________________________
dense_5 (Dense)              (None, 100)               2153100   
_________________________________________________________________
dropout_8 (Dropout)          (None, 100)               0         
_________________________________________________________________
dense_6 (Dense)              (None, 1)                 101       
_________________________________________________________________
dropout_9 (Dropout)          (None, 1)                 0         
=================================================================
Total params: 2,153,251
Trainable params: 2,153,251
Non-trainable params: 0
_________________________________________________________________
Epoch: 0, R squared: 0.15074
Epoch: 1, R squared: 0.19392
Epoch: 2, R squared: 0.21629
Epoch: 3, R squared: 0.23433
Epoch: 4, R squared: 0.24789
Epoch: 5, R squared: 0.25300
Epoch: 6, R squared: 0.25335
…
Epoch: 28, R squared: 0.23590
Epoch: 29, R squared: 0.22557
Epoch: 30, R squared: 0.24291
Epoch: 31, R squared: 0.22700
Epoch: 32, R squared: 0.24885
Epoch: 33, R squared: 0.23373
Epoch: 34, R squared: 0.23568
Epoch: 35, R squared: 0.23133
Epoch: 36, R squared: 0.21769
Epoch: 37, R squared: 0.22590
Epoch: 38, R squared: 0.22120
Epoch: 39, R squared: 0.22148
1-Conv R squared = 0.22148
_________________________________________________________________
Layer (type)                 Output Shape              Param #   
=================================================================
diffusion_conv_modified_1 (D (None, 2153, 10)          8662      
_________________________________________________________________
dropout_10 (Dropout)         (None, 2153, 10)          0         
_________________________________________________________________
flatten_4 (Flatten)          (None, 21530)             0         
_________________________________________________________________
dense_7 (Dense)              (None, 100)               2153100   
_________________________________________________________________
dropout_11 (Dropout)         (None, 100)               0         
_________________________________________________________________
dense_8 (Dense)              (None, 1)                 101       
_________________________________________________________________
dropout_12 (Dropout)         (None, 1)                 0         
=================================================================
Total params: 2,161,863
Trainable params: 2,161,863
Non-trainable params: 0
_________________________________________________________________
Epoch: 0, R squared: 0.12703
Epoch: 1, R squared: 0.14412
Epoch: 2, R squared: 0.15289
Epoch: 3, R squared: 0.15957
Epoch: 4, R squared: 0.16576
Epoch: 5, R squared: 0.17383
Epoch: 6, R squared: 0.18317
…
