Random seed = 1984
Training data shape:(6148,2153)
Test data shape:(2045,2153)
('Shape of Prob_transition_tensor:', (2153, 11, 2153))
graph_mat shape:(2153,5)
_________________________________________________________________
Layer (type)                 Output Shape              Param #   
=================================================================
graph_conv_1 (GraphConv)     (None, 2153, 10)          60        
_________________________________________________________________
dropout_1 (Dropout)          (None, 2153, 10)          0         
_________________________________________________________________
flatten_1 (Flatten)          (None, 21530)             0         
_________________________________________________________________
dense_1 (Dense)              (None, 100)               2153100   
_________________________________________________________________
dropout_2 (Dropout)          (None, 100)               0         
_________________________________________________________________
dense_2 (Dense)              (None, 1)                 101       
_________________________________________________________________
dropout_3 (Dropout)          (None, 1)                 0         
=================================================================
Total params: 2,153,261
Trainable params: 2,153,261
Non-trainable params: 0
_________________________________________________________________
Epoch: 0, R squared: 0.10145
Epoch: 1, R squared: 0.10592
Epoch: 2, R squared: 0.15166
Epoch: 3, R squared: 0.16934
Epoch: 4, R squared: 0.19016
Epoch: 5, R squared: 0.18739
Epoch: 6, R squared: 0.21069
…
Epoch: 28, R squared: 0.24669
Epoch: 29, R squared: 0.23950
Epoch: 30, R squared: 0.23376
Epoch: 31, R squared: 0.22810
Epoch: 32, R squared: 0.22967
Epoch: 33, R squared: 0.23814
Epoch: 34, R squared: 0.24079
Epoch: 35, R squared: 0.23956
Epoch: 36, R squared: 0.23361
Epoch: 37, R squared: 0.24089
Epoch: 38, R squared: 0.24147
Epoch: 39, R squared: 0.23768
1-Conv R squared = 0.23768
_________________________________________________________________
Layer (type)                 Output Shape              Param #   
=================================================================
diffusion_conv_1 (DiffusionC (None, 2153, 10)          120       
_________________________________________________________________
dropout_7 (Dropout)          (None, 2153, 10)          0         
_________________________________________________________________
flatten_3 (Flatten)          (None, 21530)             0         
_________________________________________________________________
dense_5 (Dense)              (None, 100)               2153100   
_________________________________________________________________
dropout_8 (Dropout)          (None, 100)               0         
_________________________________________________________________
dense_6 (Dense)              (None, 1)                 101       
_________________________________________________________________
dropout_9 (Dropout)          (None, 1)                 0         
=================================================================
Total params: 2,153,321
Trainable params: 2,153,321
Non-trainable params: 0
_________________________________________________________________
Epoch: 0, R squared: 0.14750
Epoch: 1, R squared: 0.20104
Epoch: 2, R squared: 0.21586
Epoch: 3, R squared: 0.22693
Epoch: 4, R squared: 0.23495
Epoch: 5, R squared: 0.23686
Epoch: 6, R squared: 0.23877
…
Epoch: 28, R squared: 0.23614
Epoch: 29, R squared: 0.21370
Epoch: 30, R squared: 0.23883
Epoch: 31, R squared: 0.21390
Epoch: 32, R squared: 0.23832
Epoch: 33, R squared: 0.22448
Epoch: 34, R squared: 0.22499
Epoch: 35, R squared: 0.22508
Epoch: 36, R squared: 0.21286
Epoch: 37, R squared: 0.22000
Epoch: 38, R squared: 0.22381
Epoch: 39, R squared: 0.22506
1-Conv R squared = 0.22506
_________________________________________________________________
Layer (type)                 Output Shape              Param #   
=================================================================
diffusion_conv_modified_1 (D (None, 2153, 10)          23803     
_________________________________________________________________
dropout_10 (Dropout)         (None, 2153, 10)          0         
_________________________________________________________________
flatten_4 (Flatten)          (None, 21530)             0         
_________________________________________________________________
dense_7 (Dense)              (None, 100)               2153100   
_________________________________________________________________
dropout_11 (Dropout)         (None, 100)               0         
_________________________________________________________________
dense_8 (Dense)              (None, 1)                 101       
_________________________________________________________________
dropout_12 (Dropout)         (None, 1)                 0         
=================================================================
Total params: 2,177,004
Trainable params: 2,177,004
Non-trainable params: 0
_________________________________________________________________
Epoch: 0, R squared: 0.13064
Epoch: 1, R squared: 0.14302
Epoch: 2, R squared: 0.14786
Epoch: 3, R squared: 0.15591
Epoch: 4, R squared: 0.16786
Epoch: 5, R squared: 0.18550
Epoch: 6, R squared: 0.20079
…
