Random seed = 1984
Training data shape:(6148,2153)
Test data shape:(2045,2153)
('Shape of Prob_transition_tensor:', (2153, 20, 2153))
graph_mat shape:(2153,5)
_________________________________________________________________
Layer (type)                 Output Shape              Param #   
=================================================================
graph_conv_1 (GraphConv)     (None, 2153, 10)          60        
_________________________________________________________________
dropout_1 (Dropout)          (None, 2153, 10)          0         
_________________________________________________________________
flatten_1 (Flatten)          (None, 21530)             0         
_________________________________________________________________
dense_1 (Dense)              (None, 100)               2153100   
_________________________________________________________________
dropout_2 (Dropout)          (None, 100)               0         
_________________________________________________________________
dense_2 (Dense)              (None, 1)                 101       
_________________________________________________________________
dropout_3 (Dropout)          (None, 1)                 0         
=================================================================
Total params: 2,153,261
Trainable params: 2,153,261
Non-trainable params: 0
_________________________________________________________________
Epoch: 0, R squared: 0.06449
Epoch: 1, R squared: 0.09811
Epoch: 2, R squared: 0.14422
Epoch: 3, R squared: 0.15960
Epoch: 4, R squared: 0.20473
Epoch: 5, R squared: 0.19278
Epoch: 6, R squared: 0.22529
…
Epoch: 28, R squared: 0.24194
Epoch: 29, R squared: 0.23361
Epoch: 30, R squared: 0.22978
Epoch: 31, R squared: 0.22373
Epoch: 32, R squared: 0.22600
Epoch: 33, R squared: 0.23343
Epoch: 34, R squared: 0.23704
Epoch: 35, R squared: 0.23528
Epoch: 36, R squared: 0.23006
Epoch: 37, R squared: 0.23349
Epoch: 38, R squared: 0.23669
Epoch: 39, R squared: 0.23105
1-Conv R squared = 0.23105
_________________________________________________________________
Layer (type)                 Output Shape              Param #   
=================================================================
diffusion_conv_1 (DiffusionC (None, 2153, 10)          210       
_________________________________________________________________
dropout_7 (Dropout)          (None, 2153, 10)          0         
_________________________________________________________________
flatten_3 (Flatten)          (None, 21530)             0         
_________________________________________________________________
dense_5 (Dense)              (None, 100)               2153100   
_________________________________________________________________
dropout_8 (Dropout)          (None, 100)               0         
_________________________________________________________________
dense_6 (Dense)              (None, 1)                 101       
_________________________________________________________________
dropout_9 (Dropout)          (None, 1)                 0         
=================================================================
Total params: 2,153,411
Trainable params: 2,153,411
Non-trainable params: 0
_________________________________________________________________
Epoch: 0, R squared: 0.12754
Epoch: 1, R squared: 0.18372
Epoch: 2, R squared: 0.20250
Epoch: 3, R squared: 0.21289
Epoch: 4, R squared: 0.22755
Epoch: 5, R squared: 0.23312
Epoch: 6, R squared: 0.23545
…
Epoch: 28, R squared: 0.22140
Epoch: 29, R squared: 0.19490
Epoch: 30, R squared: 0.22992
Epoch: 31, R squared: 0.20217
Epoch: 32, R squared: 0.22948
Epoch: 33, R squared: 0.20454
Epoch: 34, R squared: 0.22352
Epoch: 35, R squared: 0.21797
Epoch: 36, R squared: 0.20312
Epoch: 37, R squared: 0.21486
Epoch: 38, R squared: 0.23178
Epoch: 39, R squared: 0.21307
1-Conv R squared = 0.21307
_________________________________________________________________
Layer (type)                 Output Shape              Param #   
=================================================================
diffusion_conv_modified_1 (D (None, 2153, 10)          43270     
_________________________________________________________________
dropout_10 (Dropout)         (None, 2153, 10)          0         
_________________________________________________________________
flatten_4 (Flatten)          (None, 21530)             0         
_________________________________________________________________
dense_7 (Dense)              (None, 100)               2153100   
_________________________________________________________________
dropout_11 (Dropout)         (None, 100)               0         
_________________________________________________________________
dense_8 (Dense)              (None, 1)                 101       
_________________________________________________________________
dropout_12 (Dropout)         (None, 1)                 0         
=================================================================
Total params: 2,196,471
Trainable params: 2,196,471
Non-trainable params: 0
_________________________________________________________________
Epoch: 0, R squared: 0.13354
Epoch: 1, R squared: 0.14679
Epoch: 2, R squared: 0.15087
Epoch: 3, R squared: 0.15809
Epoch: 4, R squared: 0.16937
Epoch: 5, R squared: 0.18507
Epoch: 6, R squared: 0.19992
…
