Random seed = 1984
Training data shape:(6148,2153)
Test data shape:(2045,2153)
('Shape of Prob_transition_tensor:', (2153, 5, 2153))
graph_mat shape:(2153,5)
_________________________________________________________________
Layer (type)                 Output Shape              Param #   
=================================================================
graph_conv_1 (GraphConv)     (None, 2153, 10)          60        
_________________________________________________________________
dropout_1 (Dropout)          (None, 2153, 10)          0         
_________________________________________________________________
flatten_1 (Flatten)          (None, 21530)             0         
_________________________________________________________________
dense_1 (Dense)              (None, 100)               2153100   
_________________________________________________________________
dropout_2 (Dropout)          (None, 100)               0         
_________________________________________________________________
dense_2 (Dense)              (None, 1)                 101       
_________________________________________________________________
dropout_3 (Dropout)          (None, 1)                 0         
=================================================================
Total params: 2,153,261
Trainable params: 2,153,261
Non-trainable params: 0
_________________________________________________________________
Epoch: 0, R squared: 0.16612
Epoch: 1, R squared: 0.15310
Epoch: 2, R squared: 0.16460
Epoch: 3, R squared: 0.16751
Epoch: 4, R squared: 0.17837
Epoch: 5, R squared: 0.16864
Epoch: 6, R squared: 0.19146
…
Epoch: 28, R squared: 0.24187
Epoch: 29, R squared: 0.22803
Epoch: 30, R squared: 0.24482
Epoch: 31, R squared: 0.22383
Epoch: 32, R squared: 0.24582
Epoch: 33, R squared: 0.23710
Epoch: 34, R squared: 0.23540
Epoch: 35, R squared: 0.23485
Epoch: 36, R squared: 0.22281
Epoch: 37, R squared: 0.22924
Epoch: 38, R squared: 0.22663
Epoch: 39, R squared: 0.23291
1-Conv R squared = 0.23291
_________________________________________________________________
Layer (type)                 Output Shape              Param #   
=================================================================
diffusion_conv_modified_1 (D (None, 2153, 10)          10825     
_________________________________________________________________
dropout_10 (Dropout)         (None, 2153, 10)          0         
_________________________________________________________________
flatten_4 (Flatten)          (None, 21530)             0         
_________________________________________________________________
dense_7 (Dense)              (None, 100)               2153100   
_________________________________________________________________
dropout_11 (Dropout)         (None, 100)               0         
_________________________________________________________________
dense_8 (Dense)              (None, 1)                 101       
_________________________________________________________________
dropout_12 (Dropout)         (None, 1)                 0         
=================================================================
Total params: 2,164,026
Trainable params: 2,164,026
Non-trainable params: 0
_________________________________________________________________
Epoch: 0, R squared: 0.13282
Epoch: 1, R squared: 0.14722
Epoch: 2, R squared: 0.15321
Epoch: 3, R squared: 0.15838
Epoch: 4, R squared: 0.16515
Epoch: 5, R squared: 0.17672
Epoch: 6, R squared: 0.18921
…
