Random seed = 1984
Training data shape:(6148,2153)
Test data shape:(2045,2153)
('Shape of Prob_transition_tensor:', (2153, 15, 2153))
graph_mat shape:(2153,5)
_________________________________________________________________
Layer (type)                 Output Shape              Param #   
=================================================================
graph_conv_1 (GraphConv)     (None, 2153, 10)          60        
_________________________________________________________________
dropout_1 (Dropout)          (None, 2153, 10)          0         
_________________________________________________________________
flatten_1 (Flatten)          (None, 21530)             0         
_________________________________________________________________
dense_1 (Dense)              (None, 100)               2153100   
_________________________________________________________________
dropout_2 (Dropout)          (None, 100)               0         
_________________________________________________________________
dense_2 (Dense)              (None, 1)                 101       
_________________________________________________________________
dropout_3 (Dropout)          (None, 1)                 0         
=================================================================
Total params: 2,153,261
Trainable params: 2,153,261
Non-trainable params: 0
_________________________________________________________________
Epoch: 0, R squared: 0.07476
Epoch: 1, R squared: 0.10194
Epoch: 2, R squared: 0.15482
Epoch: 3, R squared: 0.18295
Epoch: 4, R squared: 0.20599
Epoch: 5, R squared: 0.20846
Epoch: 6, R squared: 0.23099
…
Epoch: 28, R squared: 0.24136
Epoch: 29, R squared: 0.23362
Epoch: 30, R squared: 0.22975
Epoch: 31, R squared: 0.22342
Epoch: 32, R squared: 0.22573
Epoch: 33, R squared: 0.23322
Epoch: 34, R squared: 0.23556
Epoch: 35, R squared: 0.23365
Epoch: 36, R squared: 0.23025
Epoch: 37, R squared: 0.23342
Epoch: 38, R squared: 0.23724
Epoch: 39, R squared: 0.23143
1-Conv R squared = 0.23143
_________________________________________________________________
Layer (type)                 Output Shape              Param #   
=================================================================
diffusion_conv_1 (DiffusionC (None, 2153, 10)          160       
_________________________________________________________________
dropout_7 (Dropout)          (None, 2153, 10)          0         
_________________________________________________________________
flatten_3 (Flatten)          (None, 21530)             0         
_________________________________________________________________
dense_5 (Dense)              (None, 100)               2153100   
_________________________________________________________________
dropout_8 (Dropout)          (None, 100)               0         
_________________________________________________________________
dense_6 (Dense)              (None, 1)                 101       
_________________________________________________________________
dropout_9 (Dropout)          (None, 1)                 0         
=================================================================
Total params: 2,153,361
Trainable params: 2,153,361
Non-trainable params: 0
_________________________________________________________________
Epoch: 0, R squared: 0.13197
Epoch: 1, R squared: 0.18330
Epoch: 2, R squared: 0.20882
Epoch: 3, R squared: 0.21957
Epoch: 4, R squared: 0.22856
Epoch: 5, R squared: 0.23380
Epoch: 6, R squared: 0.23501
…
Epoch: 28, R squared: 0.23369
Epoch: 29, R squared: 0.21853
Epoch: 30, R squared: 0.23816
Epoch: 31, R squared: 0.22178
Epoch: 32, R squared: 0.23886
Epoch: 33, R squared: 0.23324
Epoch: 34, R squared: 0.22954
Epoch: 35, R squared: 0.22094
Epoch: 36, R squared: 0.21952
Epoch: 37, R squared: 0.23149
Epoch: 38, R squared: 0.22818
Epoch: 39, R squared: 0.23108
1-Conv R squared = 0.23108
_________________________________________________________________
Layer (type)                 Output Shape              Param #   
=================================================================
diffusion_conv_modified_1 (D (None, 2153, 10)          32455     
_________________________________________________________________
dropout_10 (Dropout)         (None, 2153, 10)          0         
_________________________________________________________________
flatten_4 (Flatten)          (None, 21530)             0         
_________________________________________________________________
dense_7 (Dense)              (None, 100)               2153100   
_________________________________________________________________
dropout_11 (Dropout)         (None, 100)               0         
_________________________________________________________________
dense_8 (Dense)              (None, 1)                 101       
_________________________________________________________________
dropout_12 (Dropout)         (None, 1)                 0         
=================================================================
Total params: 2,185,656
Trainable params: 2,185,656
Non-trainable params: 0
_________________________________________________________________
Epoch: 0, R squared: 0.12318
Epoch: 1, R squared: 0.13886
Epoch: 2, R squared: 0.14540
Epoch: 3, R squared: 0.15230
Epoch: 4, R squared: 0.16060
Epoch: 5, R squared: 0.17308
Epoch: 6, R squared: 0.18735
…
