Random seed = 1984
Training data shape:(6148,2153)
Test data shape:(2045,2153)
('Shape of Prob_transition_tensor:', (2153, 9, 2153))
graph_mat shape:(2153,5)
_________________________________________________________________
Layer (type)                 Output Shape              Param #   
=================================================================
graph_conv_1 (GraphConv)     (None, 2153, 10)          60        
_________________________________________________________________
dropout_1 (Dropout)          (None, 2153, 10)          0         
_________________________________________________________________
flatten_1 (Flatten)          (None, 21530)             0         
_________________________________________________________________
dense_1 (Dense)              (None, 100)               2153100   
_________________________________________________________________
dropout_2 (Dropout)          (None, 100)               0         
_________________________________________________________________
dense_2 (Dense)              (None, 1)                 101       
_________________________________________________________________
dropout_3 (Dropout)          (None, 1)                 0         
=================================================================
Total params: 2,153,261
Trainable params: 2,153,261
Non-trainable params: 0
_________________________________________________________________
Epoch: 0, R squared: 0.10424
Epoch: 1, R squared: 0.12124
Epoch: 2, R squared: 0.14261
Epoch: 3, R squared: 0.15757
Epoch: 4, R squared: 0.17444
Epoch: 5, R squared: 0.16712
Epoch: 6, R squared: 0.19282
…
Epoch: 28, R squared: 0.24664
Epoch: 29, R squared: 0.23959
Epoch: 30, R squared: 0.23417
Epoch: 31, R squared: 0.22848
Epoch: 32, R squared: 0.22929
Epoch: 33, R squared: 0.23802
Epoch: 34, R squared: 0.24060
Epoch: 35, R squared: 0.23978
Epoch: 36, R squared: 0.23575
Epoch: 37, R squared: 0.24010
Epoch: 38, R squared: 0.24176
Epoch: 39, R squared: 0.23607
1-Conv R squared = 0.23607
_________________________________________________________________
Layer (type)                 Output Shape              Param #   
=================================================================
diffusion_conv_1 (DiffusionC (None, 2153, 10)          100       
_________________________________________________________________
dropout_7 (Dropout)          (None, 2153, 10)          0         
_________________________________________________________________
flatten_3 (Flatten)          (None, 21530)             0         
_________________________________________________________________
dense_5 (Dense)              (None, 100)               2153100   
_________________________________________________________________
dropout_8 (Dropout)          (None, 100)               0         
_________________________________________________________________
dense_6 (Dense)              (None, 1)                 101       
_________________________________________________________________
dropout_9 (Dropout)          (None, 1)                 0         
=================================================================
Total params: 2,153,301
Trainable params: 2,153,301
Non-trainable params: 0
_________________________________________________________________
Epoch: 0, R squared: 0.14465
Epoch: 1, R squared: 0.19415
Epoch: 2, R squared: 0.22012
Epoch: 3, R squared: 0.23174
Epoch: 4, R squared: 0.24092
Epoch: 5, R squared: 0.24190
Epoch: 6, R squared: 0.24253
…
Epoch: 28, R squared: 0.23611
Epoch: 29, R squared: 0.21971
Epoch: 30, R squared: 0.24215
Epoch: 31, R squared: 0.21849
Epoch: 32, R squared: 0.23965
Epoch: 33, R squared: 0.22690
Epoch: 34, R squared: 0.22789
Epoch: 35, R squared: 0.22480
Epoch: 36, R squared: 0.21634
Epoch: 37, R squared: 0.22822
Epoch: 38, R squared: 0.22883
Epoch: 39, R squared: 0.22787
1-Conv R squared = 0.22787
_________________________________________________________________
Layer (type)                 Output Shape              Param #   
=================================================================
diffusion_conv_modified_1 (D (None, 2153, 10)          19477     
_________________________________________________________________
dropout_10 (Dropout)         (None, 2153, 10)          0         
_________________________________________________________________
flatten_4 (Flatten)          (None, 21530)             0         
_________________________________________________________________
dense_7 (Dense)              (None, 100)               2153100   
_________________________________________________________________
dropout_11 (Dropout)         (None, 100)               0         
_________________________________________________________________
dense_8 (Dense)              (None, 1)                 101       
_________________________________________________________________
dropout_12 (Dropout)         (None, 1)                 0         
=================================================================
Total params: 2,172,678
Trainable params: 2,172,678
Non-trainable params: 0
_________________________________________________________________
Epoch: 0, R squared: 0.12550
Epoch: 1, R squared: 0.13946
Epoch: 2, R squared: 0.14497
Epoch: 3, R squared: 0.15035
Epoch: 4, R squared: 0.15722
Epoch: 5, R squared: 0.16871
Epoch: 6, R squared: 0.18228
…
