Random seed = 1984
Training data shape:(6148,2153)
Test data shape:(2045,2153)
('Shape of Prob_transition_tensor:', (2153, 2, 2153))
graph_mat shape:(2153,5)
_________________________________________________________________
Layer (type)                 Output Shape              Param #   
=================================================================
graph_conv_1 (GraphConv)     (None, 2153, 10)          60        
_________________________________________________________________
dropout_1 (Dropout)          (None, 2153, 10)          0         
_________________________________________________________________
flatten_1 (Flatten)          (None, 21530)             0         
_________________________________________________________________
dense_1 (Dense)              (None, 100)               2153100   
_________________________________________________________________
dropout_2 (Dropout)          (None, 100)               0         
_________________________________________________________________
dense_2 (Dense)              (None, 1)                 101       
_________________________________________________________________
dropout_3 (Dropout)          (None, 1)                 0         
=================================================================
Total params: 2,153,261
Trainable params: 2,153,261
Non-trainable params: 0
_________________________________________________________________
Epoch: 0, R squared: 0.17328
Epoch: 1, R squared: 0.18394
Epoch: 2, R squared: 0.20508
Epoch: 3, R squared: 0.21498
Epoch: 4, R squared: 0.22286
Epoch: 5, R squared: 0.22171
Epoch: 6, R squared: 0.23702
…
Epoch: 28, R squared: 0.24820
Epoch: 29, R squared: 0.24184
Epoch: 30, R squared: 0.23632
Epoch: 31, R squared: 0.22978
Epoch: 32, R squared: 0.23151
Epoch: 33, R squared: 0.23954
Epoch: 34, R squared: 0.24166
Epoch: 35, R squared: 0.24088
Epoch: 36, R squared: 0.23683
Epoch: 37, R squared: 0.24074
Epoch: 38, R squared: 0.24324
Epoch: 39, R squared: 0.23695
1-Conv R squared = 0.23695
_________________________________________________________________
Layer (type)                 Output Shape              Param #   
=================================================================
diffusion_conv_1 (DiffusionC (None, 2153, 10)          30        
_________________________________________________________________
dropout_7 (Dropout)          (None, 2153, 10)          0         
_________________________________________________________________
flatten_3 (Flatten)          (None, 21530)             0         
_________________________________________________________________
dense_5 (Dense)              (None, 100)               2153100   
_________________________________________________________________
dropout_8 (Dropout)          (None, 100)               0         
_________________________________________________________________
dense_6 (Dense)              (None, 1)                 101       
_________________________________________________________________
dropout_9 (Dropout)          (None, 1)                 0         
=================================================================
Total params: 2,153,231
Trainable params: 2,153,231
Non-trainable params: 0
_________________________________________________________________
Epoch: 0, R squared: 0.17120
Epoch: 1, R squared: 0.20015
Epoch: 2, R squared: 0.22774
Epoch: 3, R squared: 0.24193
Epoch: 4, R squared: 0.25577
Epoch: 5, R squared: 0.25571
Epoch: 6, R squared: 0.25450
…
Epoch: 28, R squared: 0.23758
Epoch: 29, R squared: 0.21979
Epoch: 30, R squared: 0.24559
Epoch: 31, R squared: 0.21974
Epoch: 32, R squared: 0.24775
Epoch: 33, R squared: 0.22319
Epoch: 34, R squared: 0.22900
Epoch: 35, R squared: 0.23263
Epoch: 36, R squared: 0.22021
Epoch: 37, R squared: 0.22073
Epoch: 38, R squared: 0.22761
Epoch: 39, R squared: 0.22430
1-Conv R squared = 0.22430
_________________________________________________________________
Layer (type)                 Output Shape              Param #   
=================================================================
diffusion_conv_modified_1 (D (None, 2153, 10)          4336      
_________________________________________________________________
dropout_10 (Dropout)         (None, 2153, 10)          0         
_________________________________________________________________
flatten_4 (Flatten)          (None, 21530)             0         
_________________________________________________________________
dense_7 (Dense)              (None, 100)               2153100   
_________________________________________________________________
dropout_11 (Dropout)         (None, 100)               0         
_________________________________________________________________
dense_8 (Dense)              (None, 1)                 101       
_________________________________________________________________
dropout_12 (Dropout)         (None, 1)                 0         
=================================================================
Total params: 2,157,537
Trainable params: 2,157,537
Non-trainable params: 0
_________________________________________________________________
Epoch: 0, R squared: 0.14469
Epoch: 1, R squared: 0.16553
Epoch: 2, R squared: 0.17934
Epoch: 3, R squared: 0.18471
Epoch: 4, R squared: 0.18959
Epoch: 5, R squared: 0.20125
Epoch: 6, R squared: 0.21251
…
